…
print('accuracy=',scores[1])
# 進行預測
predict_x=model.predict(x_Test)
prediction=np.argmax(predict_x,axis=1)

# 輸出confuse mqtrix
import pandas as pd
pd.crosstab(y_test_label,prediction,
            rownames=['label'],colnames=['predict'])
# 儲存訓練好的模式
model.save('Keras_MNist_model-3.keras')
del model  # deletes the existing model
#+END_SRC

#+RESULTS:
#+begin_example
Model: "sequential_6"
_________________________________________________________________
 Layer (type)                Output Shape              Param #
=================================================================
 dense_12 (Dense)            (None, 1000)              785000

 dropout_2 (Dropout)         (None, 1000)              0

 dense_13 (Dense)            (None, 1000)              1001000

 dropout_3 (Dropout)         (None, 1000)              0

 dense_14 (Dense)            (None, 10)                10010

=================================================================
Total params: 1796010 (6.85 MB)
Trainable params: 1796010 (6.85 MB)
Non-trainable params: 0 (0.00 Byte)
_________________________________________________________________
None
Epoch 1/10
1500/1500 - 6s - loss: 0.3203 - accuracy: 0.9016 - val_loss: 0.1277 - val_accuracy: 0.9622 - 6s/epoch - 4ms/step
...略...
Epoch 10/10
1500/1500 - 6s - loss: 0.1013 - accuracy: 0.9726 - val_loss: 0.0961 - val_accuracy: 0.9758 - 6s/epoch - 4ms/step
…
