…
# 第3個Dropout層
model.add(tf.keras.layers.Dropout(0.5))
# 第2個全連接層/輸出層
model.add(tf.keras.layers.Dense(10, activation='softmax'))
#+end_src
建立完新模型，我們可以再用summary()函式查看新的模型架構，對比右邊的實作1原始模型，可以看出此新模型所需訓練的權重參數由原來的54,250個增加到454,410個
#+begin_src python -r -n :results output :exports both :session fashion :async
# 查看模型結萠
model.summary()
#+end_src
#+RESULTS:
#+begin_example
Model: "sequential_1"
_________________________________________________________________
 Layer (type)                Output Shape              Param #
=================================================================
 conv2d_1 (Conv2D)           (None, 28, 28, 32)        320

 max_pooling2d_1 (MaxPooling  (None, 14, 14, 32)       0
 2D)

 dropout (Dropout)           (None, 14, 14, 32)        0

 conv2d_2 (Conv2D)           (None, 14, 14, 64)        51264

 max_pooling2d_2 (MaxPooling  (None, 7, 7, 64)         0
 2D)

 dropout_1 (Dropout)         (None, 7, 7, 64)          0

 flatten_1 (Flatten)         (None, 3136)              0

 dense_1 (Dense)             (None, 128)               401536

 dropout_2 (Dropout)         (None, 128)               0

 dense_2 (Dense)             (None, 10)                1290

=================================================================
Total params: 454,410
Trainable params: 454,410
Non-trainable params: 0
_________________________________________________________________
#+end_example
如同實作1以tf.keras.utils.plot_model()函式查看圖形化模型架構
#+begin_src python -r -n :results output :exports both :session fashion :async
tf.keras.utils.plot_model(
    model,
    to_file='images/model-2.png',
…
