…
model.add(layers.Conv2D(32, (3, 3), activation='relu', input_shape=(28, 28, 1)))
model.add(layers.MaxPooling2D((2, 2)))
model.add(layers.Conv2D(64, (3, 3), activation='relu'))
model.add(layers.MaxPooling2D((2, 2)))
model.add(layers.Flatten())
model.add(layers.Dense(512, activation='relu'))
model.add(layers.Dense(10, activation='softmax'))
model.summary()  # 查看模型摘要
#+END_SRC

#+RESULTS:
#+begin_example
Model: "sequential_18"
_________________________________________________________________
 Layer (type)                Output Shape              Param #
=================================================================
 conv2d_32 (Conv2D)          (None, 26, 26, 32)        320

 max_pooling2d_25 (MaxPooli  (None, 13, 13, 32)        0
 ng2D)

 conv2d_33 (Conv2D)          (None, 11, 11, 64)        18496

 max_pooling2d_26 (MaxPooli  (None, 5, 5, 64)          0
 ng2D)

 flatten_7 (Flatten)         (None, 1600)              0

 dense_26 (Dense)            (None, 512)               819712

 dense_27 (Dense)            (None, 10)                5130

=================================================================
Total params: 843658 (3.22 MB)
Trainable params: 843658 (3.22 MB)
Non-trainable params: 0 (0.00 Byte)
_________________________________________________________________
#+end_example

在編譯時，以adim優化器，由於使用 softmax 單元結束神經網路，所以配合使用 categorical_crossentropy 為損失基準。

#+NAME: 配置 model 以進行訓練
#+BEGIN_SRC python -r -n :results output :exports both :session mnist :async
…
model.add(layers.Flatten())
model.add(layers.Dropout(0.3))
model.add(layers.Dense(2500, activation='relu')) ### 隠藏層1有2500個神經元
model.add(layers.Dropout(0.3))
model.add(layers.Dense(1500, activation='relu')) ### 隠藏層2有1500神經元
model.add(layers.Dropout(0.3))
model.add(layers.Dense(10, activation='softmax')) ### 10個label
print(model.summary())
#+end_src

#+RESULTS:
#+begin_example
Model: "sequential_5"
_________________________________________________________________
 Layer (type)                Output Shape              Param #
=================================================================
 conv2d_19 (Conv2D)          (None, 32, 32, 32)        896

 dropout_18 (Dropout)        (None, 32, 32, 32)        0

 conv2d_20 (Conv2D)          (None, 32, 32, 32)        9248

 max_pooling2d_9 (MaxPoolin  (None, 16, 16, 32)        0
 g2D)

 conv2d_21 (Conv2D)          (None, 16, 16, 64)        18496

 dropout_19 (Dropout)        (None, 16, 16, 64)        0

 conv2d_22 (Conv2D)          (None, 16, 16, 64)        36928

 max_pooling2d_10 (MaxPooli  (None, 8, 8, 64)          0
 ng2D)

 conv2d_23 (Conv2D)          (None, 8, 8, 128)         73856

 dropout_20 (Dropout)        (None, 8, 8, 128)         0

 conv2d_24 (Conv2D)          (None, 8, 8, 128)         147584

 max_pooling2d_11 (MaxPooli  (None, 4, 4, 128)         0
 ng2D)

 flatten_3 (Flatten)         (None, 2048)              0

 dropout_21 (Dropout)        (None, 2048)              0

 dense_9 (Dense)             (None, 2500)              5122500

 dropout_22 (Dropout)        (None, 2500)              0

 dense_10 (Dense)            (None, 1500)              3751500

 dropout_23 (Dropout)        (None, 1500)              0

 dense_11 (Dense)            (None, 10)                15010

=================================================================
Total params: 9176018 (35.00 MB)
Trainable params: 9176018 (35.00 MB)
Non-trainable params: 0 (0.00 Byte)
_________________________________________________________________
None
#+end_example
** 訓練、評估
#+BEGIN_SRC python -r -n :async :results output :exports both :session QQQ
### 4. 載入之前訓練的模型
try:
    model.load_weights("SaveModel/cifarCnnModelnew1.h5")
…
model.add(layers.Conv2D(128, (3, 3), activation='relu'))
model.add(layers.MaxPooling2D((2, 2)))
model.add(layers.Conv2D(128, (3, 3), activation='relu'))
model.add(layers.MaxPooling2D((2, 2)))
model.add(layers.Flatten())
model.add(layers.Dense(512, activation='relu'))
model.add(layers.Dense(1, activation='sigmoid'))
model.summary()  # 查看模型摘要
#+END_SRC

#+RESULTS:
#+begin_example
Model: "sequential"
_________________________________________________________________
 Layer (type)                Output Shape              Param #
=================================================================
 conv2d (Conv2D)             (None, 148, 148, 32)      896

 max_pooling2d (MaxPooling2  (None, 74, 74, 32)        0
 D)

 conv2d_1 (Conv2D)           (None, 72, 72, 64)        18496

 max_pooling2d_1 (MaxPoolin  (None, 36, 36, 64)        0
 g2D)

 conv2d_2 (Conv2D)           (None, 34, 34, 128)       73856

 max_pooling2d_2 (MaxPoolin  (None, 17, 17, 128)       0
 g2D)

 conv2d_3 (Conv2D)           (None, 15, 15, 128)       147584

 max_pooling2d_3 (MaxPoolin  (None, 7, 7, 128)         0
 g2D)

 flatten (Flatten)           (None, 6272)              0

 dense (Dense)               (None, 512)               3211776

 dense_1 (Dense)             (None, 1)                 513

=================================================================
Total params: 3453121 (13.17 MB)
Trainable params: 3453121 (13.17 MB)
Non-trainable params: 0 (0.00 Byte)
_________________________________________________________________
#+end_example
*** 訓練模型
建構好 model、整理完資料，接下來就可以調整 model 來搭配產生器所產生的資料，我們可以應用 model 的 fit_generator 方法，這個方法的第 1 個參數即是一個 Python 的產生器，然而由於資料是無止盡地產生，所以在宣告訓練時期之前，Keras model 需要知道從產生器抽取多少樣本，這就是 steps_per_epoch 參數的功能，它指定了從產生器取得的批次量，也就是說，model 在運行了 steps_per_epoch 次的梯度下降步驟後，訓練過程將進入下一個訓練週期(epochs)。在以下的例子中，每個批次量包含 20 個樣本，而目標樣本有 2000 個，所以就需要有 100 個批次量。
…
plt.legend()
plt.plot()
plt.savefig("CatsDogsDataAugmentation-acc.png")
plt.figure()

plt.clf()
plt.plot(epochs, loss, 'bo', label='Training loss')
plt.plot(epochs, val_loss, 'b', label='Validation loss')
plt.title('Training and validation loss')
plt.legend()
plt.plot()
plt.savefig("CatsDogsDataAugmentation-loss.png")
#+END_SRC

#+RESULTS:
#+begin_example
Model: "sequential_3"
_________________________________________________________________
 Layer (type)                Output Shape              Param #
=================================================================
 conv2d_12 (Conv2D)          (None, 148, 148, 32)      896

 max_pooling2d_12 (MaxPooli  (None, 74, 74, 32)        0
 ng2D)

 conv2d_13 (Conv2D)          (None, 72, 72, 64)        18496

 max_pooling2d_13 (MaxPooli  (None, 36, 36, 64)        0
 ng2D)

 conv2d_14 (Conv2D)          (None, 34, 34, 128)       73856

 max_pooling2d_14 (MaxPooli  (None, 17, 17, 128)       0
 ng2D)

 conv2d_15 (Conv2D)          (None, 15, 15, 128)       147584

 max_pooling2d_15 (MaxPooli  (None, 7, 7, 128)         0
 ng2D)

 flatten_3 (Flatten)         (None, 6272)              0

 dropout_2 (Dropout)         (None, 6272)              0

 dense_6 (Dense)             (None, 512)               3211776

 dense_7 (Dense)             (None, 1)                 513

=================================================================
Total params: 3453121 (13.17 MB)
Trainable params: 3453121 (13.17 MB)
Non-trainable params: 0 (0.00 Byte)
_________________________________________________________________
WARNING:absl:At this time, the v2.11+ optimizer `tf.keras.optimizers.RMSprop` runs slowly on M1/M2 Macs, please use the legacy Keras optimizer instead, located at `tf.keras.optimizers.legacy.RMSprop`.
…
                  input_shape=(150, 150, 3))
conv_base.summary()
#+END_SRC

#+RESULTS: VGG16 pretrained model架構細節
#+begin_example
Downloading data from https://storage.googleapis.com/tensorflow/keras-applications/vgg16/vgg16_weights_tf_dim_ordering_tf_kernels_notop.h5
58889256/58889256 [==============================] - 98s 2us/step
Model: "vgg16"
_________________________________________________________________
 Layer (type)                Output Shape              Param #
=================================================================
 input_1 (InputLayer)        [(None, 150, 150, 3)]     0

 block1_conv1 (Conv2D)       (None, 150, 150, 64)      1792

 block1_conv2 (Conv2D)       (None, 150, 150, 64)      36928

 block1_pool (MaxPooling2D)  (None, 75, 75, 64)        0

 block2_conv1 (Conv2D)       (None, 75, 75, 128)       73856

 block2_conv2 (Conv2D)       (None, 75, 75, 128)       147584

 block2_pool (MaxPooling2D)  (None, 37, 37, 128)       0

 block3_conv1 (Conv2D)       (None, 37, 37, 256)       295168

 block3_conv2 (Conv2D)       (None, 37, 37, 256)       590080

 block3_conv3 (Conv2D)       (None, 37, 37, 256)       590080

 block3_pool (MaxPooling2D)  (None, 18, 18, 256)       0

 block4_conv1 (Conv2D)       (None, 18, 18, 512)       1180160

 block4_conv2 (Conv2D)       (None, 18, 18, 512)       2359808

 block4_conv3 (Conv2D)       (None, 18, 18, 512)       2359808

 block4_pool (MaxPooling2D)  (None, 9, 9, 512)         0

 block5_conv1 (Conv2D)       (None, 9, 9, 512)         2359808

 block5_conv2 (Conv2D)       (None, 9, 9, 512)         2359808

 block5_conv3 (Conv2D)       (None, 9, 9, 512)         2359808

 block5_pool (MaxPooling2D)  (None, 4, 4, 512)         0

=================================================================
Total params: 14714688 (56.13 MB)
Trainable params: 14714688 (56.13 MB)
Non-trainable params: 0 (0.00 Byte)
_________________________________________________________________
#+end_example

由上述輸出觀察，最終特徵圖的 shape 為(4, 4, 512)，這算是神經網路的 top 層特徵，這個預訓練的 model 共有 13 層 Conv2D 層，最後要再接上密集連接分類器。做法有二：

1. 在資料集上執行 convolutional base，將輸出記錄到硬碟上的 Numpy 陣列，然後再輸入到獨立的密集分類層。這種解決方案只需要為每個輪入影像執行一次 convolutional base，而 convolutional base 是處理過程中成本最高的部份，所以這種做法速度快成本低。但也因如此，這種做法不允許使用資料擴增法。
…
4. 解凍 convolutional base 的某幾層
5. 共同訓練解凍層和分類器

以 VGG16 的模組架構為例，其分層架構如下：

#+NAME: VGG16-arch
#+BEGIN_SRC python -r -n :results output :exports both
from keras.applications import VGG16

conv_base = VGG16(weights='imagenet',
                  include_top=False,
                  input_shape=(150, 150, 3))
conv_base.summary()
#+END_SRC

#+RESULTS: VGG16-arch
#+begin_example
Model: "vgg16"
_________________________________________________________________
Layer (type)                 Output Shape              Param #
=================================================================
input_1 (InputLayer)         (None, 150, 150, 3)       0
_________________________________________________________________
block1_conv1 (Conv2D)        (None, 150, 150, 64)      1792
_________________________________________________________________
block1_conv2 (Conv2D)        (None, 150, 150, 64)      36928
_________________________________________________________________
block1_pool (MaxPooling2D)   (None, 75, 75, 64)        0
_________________________________________________________________
block2_conv1 (Conv2D)        (None, 75, 75, 128)       73856
_________________________________________________________________
block2_conv2 (Conv2D)        (None, 75, 75, 128)       147584
_________________________________________________________________
block2_pool (MaxPooling2D)   (None, 37, 37, 128)       0
_________________________________________________________________
block3_conv1 (Conv2D)        (None, 37, 37, 256)       295168
_________________________________________________________________
block3_conv2 (Conv2D)        (None, 37, 37, 256)       590080
_________________________________________________________________
block3_conv3 (Conv2D)        (None, 37, 37, 256)       590080
_________________________________________________________________
block3_pool (MaxPooling2D)   (None, 18, 18, 256)       0
_________________________________________________________________
block4_conv1 (Conv2D)        (None, 18, 18, 512)       1180160
_________________________________________________________________
block4_conv2 (Conv2D)        (None, 18, 18, 512)       2359808
_________________________________________________________________
block4_conv3 (Conv2D)        (None, 18, 18, 512)       2359808
_________________________________________________________________
block4_pool (MaxPooling2D)   (None, 9, 9, 512)         0
_________________________________________________________________
block5_conv1 (Conv2D)        (None, 9, 9, 512)         2359808
_________________________________________________________________
block5_conv2 (Conv2D)        (None, 9, 9, 512)         2359808
_________________________________________________________________
block5_conv3 (Conv2D)        (None, 9, 9, 512)         2359808
_________________________________________________________________
block5_pool (MaxPooling2D)   (None, 4, 4, 512)         0
=================================================================
Total params: 14,714,688
Trainable params: 14,714,688
Non-trainable params: 0
_________________________________________________________________
#+end_example

我們可以調整這個 convolutional base 的最頂層(block5)三層的卷積層，即 block5_conv1、block5_conv2、block5_conv3 三層，然後凍結 block4_pool 以下的所有層。之所以選擇只解凍 convolutional base 的最頂層，幾個考量原因如下：

 - 相對於 convolutional base 中的低層主要是對更通用、可重複使用的特徵進行編碼；更高層則是對更特定的特徵進行編碼，所以這些特徵需要重新調整才能適用於新的問題。如果是對低層進行微調，則會出現反效果。
…
